gesture_recognition_model.tflite (tflite, 6944 bytes, 6 tensors)

dense_2/bias f4 [16]
00000000: 0b62 b73d a4d9 2c3f 74c3 eb3e c400 ca3e
00000010: 07c1 4fbc e811 9fbd d11d 59bf 10f5 5dbf
00000020: a24b 413f 7297 a1bc 41b3 a93e f39a d3bf
00000030: c893 1d3f 89e9 533f 8c73 06bf 5eec cfbe
0.08954247 0.67519593 0.46047556 0.3945371 -0.012680299 -0.07767087 -0.8481112 -0.8670206
0.7550603 -0.019725535 0.33144572 -1.6531662 0.6155362 0.8277822 -0.5252006 -0.4061002

dense_1/bias f4 [10]
00000000: 7f8d 853f 27a1 823f 8df0 ae3f 3a7d 3d3f
00000010: c233 df3e befb 1c3f 557f 513f aeca ef3d
00000020: 5807 bf3f f6bc 6d3f
1.0433806 1.020543 1.366716 0.74019206 0.43594176 0.6132163 0.8183492 0.1170858
1.4924116 0.92866457

dense/bias f4 [20]
00000000: fd3b 91be a7ad 21be 9f27 123d eda3 44bf
00000010: 1dd3 a53d 628e dcbd 79c9 0ebf cf76 a2bc
00000020: bea1 02bf d39c cfbe 7a6e e7be 4817 15bf
00000030: efe4 c6be 5c40 70bc d398 b03e 86bf 0abf
00000040: 6416 eebe 66fe e7be f061 4ebe a9e0 bdbd
-0.2836608 -0.157889 0.035682317 -0.7681263 0.08096907 -0.10769345 -0.5577617 -0.019832043
-0.5102805 -0.40549335 -0.45201474 -0.5823865 -0.38846537 -0.014663782 0.34491596 -0.5419849
-0.46501458 -0.45311278 -0.20154548 -0.09271366

sequential/dense/MatMul f4 [20, 42]
00000000: 3b96 44be 5cc6 01be a9c7 0e3f 5df9 a4be
00000010: 95b0 5a3e e890 1fbe 6a36 743e 6918 8ebe
00000020: 8342 b33c b244 47bf eb2f 4abf 0fd0 6ebe
00000030: 0752 66be 8297 bcbd 394d 09bf 8cc6 cfbf
00000040: e46d 51bf 4949 3dbe 6cb5 28bf 4eaa dcbd
00000050: ede9 3d3e 27bc 333e 2b4d e33e 1953 b33e
00000060: 3856 fc3e 6c6c cd3e f93f c7be 8754 0b3d
00000070: e4d8 dd3d 8d62 af3e d2a3 253d 7277 323f
00000080: 310a d83d 0cb5 263f 57f2 e9bd 0cf4 293e
00000090: 70f9 fe3d 0340 b73e 3988 ebbd 3493 2d3f
000000a0: 1d7f 91be d99a 193f fc13 9dbe b23c 403e
000000b0: 340b a43e 9e1e e33f 7cf2 dd3d 96ba 273f
000000c0: 1e81 41bd d000 ce3e bbb4 69bd 0d23 a33e
000000d0: c284 243e d9ba 713e cbdb b13d 462e 2f3e
000000e0: 99a0 433d ee1b 183e b70c 383c ba44 2bc0
000000f0: f9ad 073e 6d86 473e 724a 693c 4d49 303e
00000100: 9db9 183c c33f 603e b1c7 ec3a 8489 3a3e
00000110: 0688 cd3d c5b1 e23d fba6 b2bc 68b4 ec3d
00000120: 777f 9abd ba66 103e 83f9 cdbd 62e2 153e
00000130: 70b3 783d 3e5c ff3b 7984 ffbd cddc d83c
00000140: 9ea7 29be b03b fa3d e144 4abe e0ff 05bd
00000150: 253b 28be 5656 2f3e 9732 15c0 60de 9c3e
00000160: 2eb9 84bf 117e 823e 605c 00bf 905a 9c3d
00000170: d138 d6bc a05e 8fbe 24fd dcbe 828d a3be
00000180: 27c2 e0bd 97bb cebe cbd7 373e 5f0f c9bf
00000190: eb64 093f 4453 2cbf 70e2 10be 41b4 91be
000001a0: 5f20 d53d 45a3 64bd 293c f33c 6441 e6bd
000001b0: 0afe 143e 7ed6 54bd d2e2 193e 92ff 3fbe
000001c0: c07d b83e 2f46 c43e e426 763d 2ca1 7e3f
000001d0: e890 a7bc 77d6 483f 2433 143f 16aa 98bc
000001e0: 8fba 103f 2907 fd3e 5ae4 b63e db27 6a3f
000001f0: fe75 8d3e 26b0 2a3f 0e60 20be 9817 2fbe
00000200: 137f 6b40 c196 aa3e 342b ed3f c1ab ab3d
00000210: d49c 0140 47e3 123e 39b1 0440 b2c0 323e
00000220: 4f59 2f3f fb33 29be 8556 1b3e 327e 83be
00000230: 1dbc 923b 014b 85bc 6a43 643d 8b67 123c
00000240: f39d a93e fdc6 2dbe f9b3 90be d782 17be
00000250: eb9d d7be e3dd c2bc 15d5 5abe 13f8 38be
00000260: 8866 4dbd 3b55 b4be ec76 20bf 1e6a a5be
00000270: ab9d cabe ce09 e43c 30e6 db3d ca25 dfbb
00000280: bfa9 3ebf 34c5 1ebf 2fb3 9bbf b579 30bf
00000290: 58dd 97bf d2ec 06bf 3406 6bbf 71a4 56bf
000002a0: e87e 0a3e c00e afbd 10f8 86bf a7e9 d33f
000002b0: 5919 e7be ffed fc3f 2d23 e6be 6173 1f40
000002c0: a593 17bf 6f81 0c40 078f 093c 020e 133f
000002d0: ce71 2b3d 908e 1e3f 3a72 e2bb fea6 a43e
000002e0: 43ea c4bd 8a17 2e3e 18a3 213d e0a6 d23e
000002f0: 6f93 12be df2b 973e 214d 29be ae7c 52bd
00000300: e451 c1be 3d7d 5cbd 68fe 1c3e 03e8 a93d
00000310: 33ce 0ebe fa91 8a3c 3462 3cbe 678a 70be
00000320: 8f17 f0be 1d74 a0be 1ab2 b23e 0aaa 40be
00000330: 27cb 6c3d f939 97be 5b62 c2be d5ea 0abf
00000340: 3c72 49bf a9aa 06be d04d a1bc 5029 e83d
00000350: ee60 84bf ad59 7ebe 38c2 0abf df13 dbbc
00000360: 399f 70bf 88c9 95bd a12d a4bf beb4 1fbe
00000370: 6d96 87be c1b1 8d3d cc51 c13e 3e3f 1c3e
00000380: 1832 0a3f 25c1 e13d 189b e13e f952 66bc
00000390: 2c67 c0be 2aa0 923d 5f85 5b3d dee4 1dbd
000003a0: 161b 13be 06b4 fdbf f041 03bf 57f2 dbbf
000003b0: c5a2 cbbe ccba 553e 7d83 ab3e d305 f73e
000003c0: 39bf 2a3f 4beb d93e bfeb f13e e6af e83e
000003d0: b82c 83be c828 ef3e 2019 df3e a2ac 453f
000003e0: 6a7f 2a3f b2c4 573f 06c1 ec3e 5130 263f
000003f0: 74dd b23d 3438 eb3d 7a6d 0a40 8322 6e3f
-0.19197933 -0.12673324 0.5577341 -0.322215 0.21356423 -0.15582621 0.23848882 -0.27752998
0.021882301 -0.77839196 -0.78979367 -0.23321556 -0.22492228 -0.09208585 -0.5363346 -1.6232467
-0.81808305 -0.18484987 -0.6590183 -0.107746705 0.18546267 0.17552243 0.44394812 0.35024336
0.4928453 0.40121782 -0.38915995 0.03401616 0.10832384 0.34254876 0.040439434 0.6971351
0.10548819 0.65120006 -0.11423176 0.16597003 0.1244992 0.35791025 -0.11500592 0.6780274
-0.28417292 0.60001904 -0.3067931 0.18773153 0.32039797 1.7743719 0.10837266 0.6551908
-0.047242276 0.40234995 -0.057057124 0.3186268 0.16066268 0.23606433 0.086845 0.17107496
0.04776058 0.14854404 0.0112335 -2.6760697 0.13249959 0.19484873 0.014238941 0.17215462
0.009321597 0.21899323 0.0018064884 0.1821652 0.1003571 0.11069063 -0.021808138 0.11557847
-0.07543843 0.14101687 -0.10057356 0.1463714 0.060718 0.0077929785 -0.12476439 0.026472474
-0.16567847 0.12218416 -0.19752838 -0.032714725 -0.16428812 0.17122778 -2.3312128 0.3063841
-1.0369012 0.25486806 -0.50140953 0.07634461 -0.026150139 -0.2800188 -0.4316188 -0.319439
-0.109745316 -0.40377495 0.17953412 -1.5707816 0.53669614 -0.67314553 -0.14148879 -0.28457835
0.10406565 -0.05581977 0.029691773 -0.11242941 0.14550033 -0.05196237 0.15027931 -0.18749836
0.3603344 0.38334796 0.060095683 0.9946468 -0.020454839 0.7845225 0.57890534 -0.01863579
0.56534666 0.49419525 0.35721093 0.91467065 0.27629083 0.6667503 -0.15661642 -0.17098844
3.679631 0.3331814 1.852881 0.08382369 2.025197 0.14344512 2.0733168 0.1745632
0.6849565 -0.16523735 0.15169723 -0.25682217 0.0044779913 -0.016271116 0.055728354 0.008935819
0.33128318 -0.1697044 -0.28262308 -0.14796005 -0.4211267 -0.023787444 -0.21370347 -0.18063383
-0.05014661 -0.35221276 -0.6268146 -0.32307523 -0.39573416 0.027836706 0.10737264 -0.0068099247
-0.7447776 -0.6201966 -1.2164057 -0.6893571 -1.1864424 -0.5270511 -0.9180634 -0.8384467
0.13524973 -0.08547735 -1.0544453 1.655568 -0.45136526 1.9760131 -0.44948712 2.4914172
-0.5920966 2.1954 0.008395917 0.5744325 0.04185658 0.61936283 -0.0069105895 0.32158655
-0.096149944 0.17001167 0.03946218 0.4114294 -0.14314054 0.29525658 -0.16533329 -0.051388435
-0.3775779 -0.053830374 0.15331423 0.08296206 -0.13945846 0.01691531 -0.18396837 -0.23490296
-0.46892974 -0.31338587 0.34901506 -0.18814865 0.05781093 -0.29536417 -0.37965664 -0.54264575
-0.7868993 -0.13151039 -0.019690424 0.11336005 -1.034208 -0.24838896 -0.54202604 -0.026742874
-0.93992954 -0.0731383 -1.2826425 -0.15596291 -0.26481953 0.069186695 0.3775772 0.152585
0.53982687 0.110231675 0.4406364 -0.014057868 -0.37578714 0.07159455 0.05359399 -0.038548343
-0.14365801 -1.9820564 -0.5127249 -1.7183331 -0.3977262 0.20872039 0.33498755 0.4824663
0.6669803 0.42562327 0.47250172 0.454467 -0.25620055 0.467108 0.43573856 0.7721654
0.6660067 0.8428451 0.46241015 0.64917475 0.08733645 0.11485329 2.162932 0.9302141

sequential/dense_1/MatMul f4 [10, 20]
00000000: 0970 d4bd 1a9a 83bc 6296 c43e 6e60 63be
00000010: 08b2 2d3f 31f4 d33f 3a62 da3e ece1 4cbe
00000020: b89d a93f 1a43 8b3f 8a13 3540 321d 5f40
00000030: 6d60 013e 6be4 9fbd 6ab8 af3f 88e4 0f3f
00000040: 7b2e d8bd 2714 613e 593d 2f3e a84a 123f
00000050: 4019 b8be dc56 c340 4f30 0a40 1c0a 07be
00000060: bcd3 b23f d8aa e93f e8da 873e ad6c 063d
00000070: 56e8 ea3f 8f89 b43f e8b2 b93e dc57 bfbe
00000080: c2ff b3be 8bb4 0140 1134 20bf 1e60 7f3e
00000090: 53e2 d43e d6a8 c53f e3df d6be af9b 29bf
000000a0: ae9a 2140 9e85 0240 dcdc 283f deeb 593f
000000b0: 43f3 84bf 61f9 4bbd 7dc5 ad3f 0b36 fdbd
000000c0: e5d8 373f e844 ce3e 3f0f ac3e e059 b5be
000000d0: ff4b 58bf 910b 13bf 19f5 63bf 6657 ccbe
000000e0: 8bbd 4a3e 6b54 23bf a9bc 673f 76f0 c43f
000000f0: 8e39 f7bd bc13 7f3f cd55 ccbd 5982 dc3f
00000100: b4ad 06bf 8415 22bf 829e c13f aa44 a83f
00000110: 7649 17be c7e7 313c 39d8 2abd e696 87bb
00000120: 6796 1f40 e1d3 77bd cb5e eabc a401 ee3f
00000130: fa9c f73f 24a0 0a40 0fd0 01be cdd4 46be
00000140: 7e64 4ebf ed55 1ebf adff edbc 6b89 923f
00000150: 4661 9c3f 87e8 d6be dfee 263f f538 c83f
00000160: 10ed 173d f598 1c3e 0a5d 2c3f 2874 44bd
00000170: 4752 1d40 5e98 2d3f 2600 823e 1028 0240
00000180: 893c ed3f df0a 083f a541 853f b742 cc3e
00000190: b5eb 893f 2823 02bf 85ac c83c 0264 0a3e
000001a0: 1490 4ebd f368 603f 9018 793f 7654 04bf
000001b0: a7c7 3d3e 27b3 1b3c 6155 68be 2968 e2be
000001c0: e3ac 3abf 1f45 7d3c 940c b0bd f3d3 ad3e
000001d0: d221 2840 0096 0440 12b3 e4bc 533c 62bf
000001e0: be68 843f fc74 8a3f 0f8a 493e aefc 883c
000001f0: d931 1840 610f a03c bb72 013e b52c 4e3f
00000200: 311c 893e 0712 c73e d934 b93e 654d db3e
00000210: b9de 903f a113 0d40 113d b33f 97be b13f
00000220: 5193 373f b45f 58c0 5ae4 2fbf 05ed 2f3f
00000230: 31a3 1ebd a265 51bd 9747 bd3e a374 e33c
00000240: 02ab bbbd 8695 ab3f d834 fdbd 5dfa 01bf
00000250: 345f 943f a511 913d 2983 3bbe 405c 03bd
00000260: be43 0d40 ad13 87be 45a3 18bd a329 2f3f
00000270: 0d45 293f a6e8 513f 3e02 6e3d e0c6 6c3f
00000280: bc3d 443f 993d 43bd fb71 633f a439 9a3f
00000290: 5e49 16be fcc3 023f 2f40 f33e 8a94 ca3f
000002a0: 2765 2bbe 891e 03c0 3797 68c0 ce1f 1b3f
000002b0: 2158 f3bf 8cc6 9b3e da01 b13f cee6 c83e
000002c0: 0559 8cbe f899 a0be 01bb 0040 a8f0 8f3f
000002d0: 0919 82bd 202a e3bf d01b 9e3f 0dab 17c0
000002e0: 6df7 c23e b885 243e 9df6 d83e 7274 0d3f
000002f0: 0dbd 453f 90ca e83f 1529 903f e36b c73f
00000300: 01ce d63e db91 833f 6721 a83e 1c06 243e
00000310: 6c42 3f3f 8d68 3d3e 710a 983f f9c8 0040
-0.103729315 -0.016064692 0.38395983 -0.22204754 0.6784978 1.6558896 0.42653066 -0.20008057
1.3251257 1.0879853 2.8293176 3.486157 0.1263444 -0.07807239 1.3728154 0.56208086
-0.105557404 0.21980344 0.17113246 0.57145166 -0.35956764 6.104353 2.1591985 -0.1318745
1.3970866 1.8255262 0.265342 0.032818485 1.8352153 1.410448 0.36269307 -0.3737172
-0.35156065 2.0266445 -0.6257945 0.2493901 0.41578922 1.544215 -0.41967687 -0.6625318
2.525066 2.0394053 0.65962005 0.8512553 -1.0386738 -0.049798373 1.3575894 -0.123638235
0.7181533 0.40286946 0.33605382 -0.35420132 -0.8449096 -0.57439524 -0.89045864 -0.3991043
0.19798867 -0.63800687 0.9052225 1.5385883 -0.120715246 0.9963949 -0.09977303 1.7227279
-0.526088 -0.6331408 1.5126498 1.3145955 -0.14774117 0.010858483 -0.041710112 -0.0041378615
2.4935548 -0.060504798 -0.028609654 1.8594251 1.934478 2.1660242 -0.12677024 -0.19417115
-0.8062209 -0.6184986 -0.02905258 1.1448187 1.2217185 -0.4197428 0.6520824 1.5642382
0.037091315 0.15292723 0.67329466 -0.047962338 2.4581468 0.6781062 0.25390738 2.0336952
1.8534099 0.5314159 1.0410658 0.3989465 1.0775057 -0.50834894 0.024496326 0.13514712
-0.050430372 0.8766014 0.97303104 -0.5169138 0.18533193 0.0095031625 -0.2268882 -0.44220093
-0.72920054 0.015458374 -0.08596149 0.33950767 2.6270642 2.0716553 -0.027917419 -0.883733
1.0344465 1.0816951 0.19681571 0.01672205 2.3780425 0.019538583 0.12641422 0.8053697
0.2677932 0.3888094 0.36173132 0.42832485 1.131797 2.204323 1.4003011 1.3886288
0.7170916 -3.3808413 -0.6870781 0.6872104 -0.03872985 -0.051122315 0.3696868 0.027765578
-0.091634765 1.3405006 -0.12363595 -0.5077265 1.1591554 0.070834436 -0.18311752 -0.0320704
2.2072597 -0.263822 -0.03726508 0.6842291 0.6612099 0.8199562 0.058107607 0.9249096
0.766567 -0.047666166 0.88845795 1.204884 -0.14676425 0.510803 0.47509906 1.582658
-0.16737805 -2.0487387 -3.6342294 0.60595405 -1.901127 0.30424917 1.382869 0.3923859
-0.27411667 -0.3136747 2.0114138 1.1245317 -0.06352431 -1.774723 1.2352238 -2.369815
0.38079396 0.16066635 0.4237565 0.55255806 0.77241594 1.8186817 1.1262537 1.55798
0.41954044 1.0278887 0.32837984 0.16017956 0.74710727 0.18496914 1.1878186 2.0122664

sequential/dense_2/MatMul f4 [16, 10]
00000000: b5ce c9bf 6f4e be3d e43f c0be 7e84 833f
00000010: 9d91 43be 37e1 113e 90f9 1d3e cafa 923e
00000020: d214 75be d9ff 3abf e0ed 013e 706b bdbf
00000030: 3310 48bf 0b78 b63e ae56 e4bd 23d6 0e3f
00000040: 1a32 84bf 7869 dabd fc4d 8f3f 9e29 13bf
00000050: da67 4dbe 7e2d e33e 6834 1c3f 7330 8abe
00000060: 96fb a7bf 2b97 e43e d469 f7bf 996d 2d3f
00000070: 53d3 2f3f 486f dcbf a7e3 063f 501a 163f
00000080: 9a02 103f bf23 4cc0 d6ee 0dc0 9d65 d0bf
00000090: b47e 943f dd4c 87bf 9a4c 89bf f9c0 a23d
000000a0: c13d 0f3f 1a91 3e3f d152 203f b775 25bf
000000b0: b10b 11c0 3884 013f 0bc6 d3bf a0d7 51bf
000000c0: 9760 bcbf 91c4 603e c77f 24bd e8ca 673f
000000d0: 34b5 18bf 8e08 37bf 1031 81be 5479 783f
000000e0: fa2e d43d eb7d a1bd cccc debf 67be 22bc
000000f0: 71de 9e3e 5871 913e 07b1 98bf 6f8a cebd
00000100: 5531 19be 1767 fd3d 7c7a 8bbc 2d3a 2b3f
00000110: b46e 72bf b07f 293f f358 ef3e f8f6 6c3f
00000120: 533c 08c0 d694 05bf d2cb 703e cc93 cfbe
00000130: 2472 0fbe 8c7a c33e 4b2d 51bf a271 c73e
00000140: 44e2 0d3e 10d6 c1bc b029 40bf 8db7 23c0
00000150: fb52 2dbe 7227 85bf 0bd5 143f 71ff 0d3f
00000160: b8af 41bf f851 883f 0895 b7bf efd6 bb3e
00000170: 4b6a 573f c608 96be bace 5dbf 5994 08bf
00000180: e10d 50bf 4245 fbbf f645 a43f 0472 5ebf
00000190: 59fb 2d3f 5522 10c0 7f4c 8a3d 20a1 6a3e
000001a0: c726 7e3f d35f 64bf 8c8f 10bf bd5c 5e3c
000001b0: 4238 11be f21a f1be 543d e5bf ee13 40c0
000001c0: 9feb f93e 67ed 9b3d 74f7 223f 9fec 7b3e
000001d0: 6669 f03e a80e 393f b603 a03e 665f c23e
000001e0: c538 c13e d419 193e dcd0 16be 3571 ed3e
000001f0: 2684 3dbe 8ac9 b53e 7eba 003e 759e 2b3f
00000200: 438d 8cbf 39e2 ecbf 053e 2dc0 2fd8 e6bf
00000210: 9947 19be 420a 413f df36 3b3f 00af b13e
00000220: 06f9 cbbf a39f 47bf 6c41 133e 3235 543f
00000230: 9366 5c3e 28a0 67bf 77f8 1d3e 2ed7 4dc0
00000240: 7593 debf c819 0f3f 1ac3 28bf 61c1 c43e
00000250: 1084 803f 6a20 603f 912c 26bf 465a b33e
00000260: 9ded 3cbf 4a9d 1ebf 3b9c fa3e 0598 31bf
00000270: fa38 a93f 8955 01c0 58a1 053f a8de e4bf
-1.5766207 0.09292304 -0.37548745 1.0274808 -0.19098516 0.14246069 0.15427232 0.28706962
-0.23933724 -0.7304664 0.12688398 -1.4798412 -0.7814972 0.3563846 -0.11149345 0.55795497
-1.032779 -0.10664648 1.1195674 -0.5748538 -0.20059147 0.44370645 0.61017466 -0.2699009
-1.3123653 0.44646582 -1.9329171 0.6774536 0.6868183 -1.722146 0.5269112 0.586339
0.5625397 -3.1896818 -2.2177024 -1.628101 1.1601167 -1.0570332 -1.0726502 0.07946963
0.55953604 0.7444016 0.6262637 -0.64632744 -2.2663386 0.50592375 -1.6544813 -0.8196964
-1.4716977 0.21949984 -0.04016092 0.90543985 -0.59651494 -0.7149743 -0.25232744 0.9706013
0.103605226 -0.07885345 -1.7406249 -0.009933091 0.31029084 0.28406787 -1.1929024 -0.10084998
-0.14960225 0.123731785 -0.017026179 0.66885644 -0.9470017 0.6621046 0.4674755 0.92564344
-2.128682 -0.5218023 0.23515251 -0.40542448 -0.14008385 0.38179433 -0.81709737 0.38953882
0.13855845 -0.023661643 -0.7506361 -2.558078 -0.16926186 -1.0402663 0.5813758 0.554679
-0.7565875 1.0650015 -1.4342356 0.3668742 0.84146565 -0.2930357 -0.86643565 -0.5335136
-0.8127118 -1.9630511 1.283385 -0.86892724 0.6796165 -2.2520955 0.06752872 0.22913027
0.9927792 -0.89208716 -0.56469035 0.013571915 -0.14181617 -0.4709087 -1.7909341 -3.0012164
0.48812577 0.0761364 0.63658834 0.24601983 0.46955413 0.7228799 0.3125283 0.37963408
0.37738624 0.14951259 -0.14728111 0.46375433 -0.18507442 0.35505325 0.12571141 0.6703866
-1.098061 -1.8506538 -2.7069104 -1.8034724 -0.14968719 0.7540628 0.731306 0.34703827
-1.5935371 -0.7797796 0.14380425 0.8289367 0.21523504 -0.90478754 0.15426813 -3.2162585
-1.738875 0.55898714 -0.659227 0.38428786 1.0040302 0.8754946 -0.6491175 0.3502981
-0.7380007 -0.61958754 0.4894732 -0.6937259 1.3220513 -2.0208457 0.52199316 -1.7880449
